mnist_model.pth (torch, 440304 bytes, 6 tensors)

layers.0.weight f4 [128, 784]
0	0x3d89d0b5	0.06729261
1	0x3d8e9a7e	0.06963061
2	0x3d018522	0.031621106
3	0x3d9515a9	0.07279522
4	0x3d03bd31	0.03216285
5	0x3d414f52	0.047194786
6	0x3cb92426	0.022600245
7	0x3d79b380	0.0609622
8	0x3d925f7e	0.0714712
9	0x3c61e254	0.013786871
10	0x3d917842	0.071030155
11	0x3d3f2b6a	0.046672262
12	0x3dad9826	0.08476286
13	0x3da49946	0.08037047
14	0x3d6a53e9	0.05720893
15	0x3d0f22ef	0.034945425
16	0x3d8a4783	0.06751921
17	0x3d3969d3	0.045266937
18	0x3cbeff42	0.023315076
19	0x3d49142a	0.049091496
20	0x3cc0c87c	0.023533098
21	0x3d12a2b3	0.035799693
22	0x3cd0c038	0.025482282
23	0x3d826a74	0.063679606
24	0x3c414417	0.011796019
25	0x3cc0b404	0.023523338
26	0x3cf4f765	0.029903123
27	0x3c97aa71	0.01851389
28	0x3d31990b	0.043358844
29	0x3b9a7471	0.004713588
30	0x3d93f34e	0.07224141
31	0x3c1e1947	0.009649581
32	0x3d8a5dc6	0.06756167
33	0x3d3c2c35	0.045940597
34	0x3d26e6ee	0.040747575
35	0x3da3af12	0.079923764
36	0x3dc6ece4	0.09713152
37	0x3db0f25f	0.086399786
38	0x3d7c0179	0.061524842
39	0x3d487509	0.04893974
40	0x3df0afda	0.11752291
41	0x3dc6beba	0.09704347
42	0x3e04d978	0.12973583
43	0x3e4d3285	0.20038803
44	0x3de611a7	0.11233836
45	0x3d6998c6	0.05703046
46	0x3d9e0ba5	0.07717065
47	0x3de14041	0.109985836
48	0x3dcba8f1	0.099443324
49	0x3d0e4a92	0.034739085
50	0x3d02b47e	0.031910412
51	0x3d2fea3e	0.042948
52	0x3c4e57c9	0.012594172
53	0x3d8de94c	0.069292635
54	0x3d4ded00	0.05027485
55	0x3d60627a	0.054781415
56	0x3d520e46	0.051283143
57	0x3d213f24	0.039366856
58	0x3d8b2929	0.0679496
59	0x38759c40	5.855807e-05
60	0x3d1dd3cc	0.038532063
61	0x3c8a77f7	0.016902907
62	0x3d87ca1b	0.066303454
63	0x3da2fafa	0.07958026
64	0x3dda8c9c	0.1067135
65	0x3cbab7f4	0.022792794
66	0x3dcb959e	0.099406466
67	0x3e74c33e	0.23902604
68	0x3da79f3b	0.08184668
69	0xbd77a874	-0.060463384
70	0x3defa06d	0.11700521
71	0x3ea7d1b7	0.32777187
72	0x3eb45e9f	0.3522844
73	0x3e82f53e	0.2557773
74	0x3dfc9e2c	0.123348564
75	0x3d3e9343	0.04652716
76	0xbc9ca9a5	-0.019123862
77	0x3daf4132	0.08557357
78	0x3dfee060	0.1244514
79	0x3db9fca4	0.090813905
80	0xbb981dc5	-0.0046422207
81	0xbbbeca1e	-0.005822434
82	0x3d7167fb	0.058937054
83	0x3cd15284	0.025552042
84	0x3d7c930a	0.061663665
85	0x3d0113b1	0.03151292
86	0x3d45a4ba	0.0482528
87	0xbcfc7603	-0.030817991
88	0x3c083638	0.008313708
89	0x3e0c6257	0.13709389
90	0x3e809c8d	0.2511944
91	0x3e69641f	0.227921
92	0x3c83b8d9	0.016079353
93	0xbdd43d1d	-0.10363219
94	0xbe38686b	-0.18008582
95	0xbeac0eb6	-0.33604974
96	0xbee7dc15	-0.45285097
97	0xbc91faef	-0.01781985
98	0x3da0bcd6	0.078485176
99	0x3e8b3435	0.27188268
100	0x3eb70abe	0.35750383
101	0x3eeb4883	0.4595376
102	0x3e76b9c3	0.240943
103	0x3ec63163	0.38709554
104	0x3e822db8	0.25425506
105	0x3df6d36e	0.12052046
106	0x3c85f0bf	0.016350148
107	0x3bf46b2c	0.007459065
108	0xbd36c3cb	-0.044620316
109	0xbc37cb8a	-0.011217961
110	0x3d9bc4bf	0.07605886
111	0x3d3f6bae	0.04673355
112	0x3d50dee2	0.050993808
113	0x3bdad0dc	0.00667773
114	0xbccf6c96	-0.025320332
115	0x3c968a0b	0.01837637
116	0x3d53b16f	0.051682886
117	0x3e2ea4d5	0.17055066
118	0x3e583689	0.21114554
119	0x3e1e647d	0.1546802
120	0xbd166beb	-0.036724012
121	0xbe64539c	-0.2229752
122	0xbe87e805	-0.26544204
123	0xbee79a0d	-0.4523472
124	0xbea54685	-0.32280365
125	0x3eabf3be	0.33584398
126	0x3eb6ec1c	0.35727012
127	0x3d2be2a6	0.041964196
128	0xbd97e329	-0.07416374
129	0xbeab39d1	-0.33442548
130	0xbe198cee	-0.14995167
131	0x3e28fe7d	0.1650333
132	0xbc2d098b	-0.010561357
133	0xbe3d1c69	-0.18467869
134	0xbe5968f1	-0.21231438
135	0xbdfebfbc	-0.12438914
136	0xbd41bad9	-0.047297332
137	0xba4b4363	-0.0007753877
138	0x3d3eb8b6	0.046562873
139	0x3d03d5e3	0.0321864
140	0x3d5cbe89	0.053892646
141	0x3c2ef454	0.01067837
142	0x3d7a822e	0.061159305
143	0x3b8dc013	0.0043258755
144	0x3d7177ab	0.058952015
145	0x3e3b528a	0.18293205
146	0x3e62ef50	0.22161603
147	0x3e32b589	0.17452063
148	0x3e935377	0.28774616
149	0xbc502d5d	-0.012706128
150	0xbeadb130	-0.33924246
151	0xbf01f528	-0.50764704
152	0xbd685623	-0.05672277
153	0x3d47f9ae	0.048822097
154	0x3e4bab49	0.19889559
155	0x3e256a89	0.16153921
156	0x3e6c2d4e	0.23064157
157	0xbec001bb	-0.3750132
158	0xbf5a9aa5	-0.8539222
159	0xbf4b3a23	-0.79385585
160	0xbefd3b42	-0.49459273
161	0xbf1c2701	-0.60997015
162	0xbef3423a	-0.47511464
163	0xbe86a510	-0.26297808
164	0xbe1e649a	-0.15468064
165	0xbd8630f6	-0.06552307
166	0x3c210001	0.009826661
167	0x3d90b862	0.07066418
168	0x3d4467c0	0.047950506
169	0x3ca5b565	0.020228097
170	0x3cba1592	0.022715364
171	0x3dc1a775	0.09455768
172	0x3dfb3b80	0.12267208
173	0x3e4490f9	0.19195928
174	0x3e0344ba	0.12819186
175	0xbe1544ae	-0.1457698
176	0xbe9a00ed	-0.3007883
177	0xbde6b103	-0.11264231
178	0xbe46d2a6	-0.19416294
179	0xbe72827a	-0.23682585
180	0xbd8352d7	-0.06412285
181	0x3df35b00	0.11882591
182	0x3eccbcc8	0.3998778
183	0x3e538640	0.20656681
184	0xbeb0f653	-0.3456293
185	0xbf133a00	-0.57510376
186	0xbf8be4bf	-1.0929183
187	0xbf839f6c	-1.0283027
188	0xbf459f5f	-0.77196306
189	0xbeb87e06	-0.36033648
190	0x3d07c6c7	0.033148553
191	0x3d25ec70	0.040508687
192	0x3ea9ce28	0.33165097
193	0xbe8838d8	-0.26605868
194	0xbd7d081a	-0.061775304
195	0x3ce739e4	0.028225847
196	0x3d25ed11	0.040509287
197	0x3d1b0d6b	0.037854593
198	0x3d4b5284	0.04963924
199	0x3d59b461	0.05315054
200	0x3cc35dff	0.023848532
201	0x3db673e7	0.08908825
202	0x3c3e5f02	0.011619331
203	0x3e7fda37	0.24985586
204	0xbf034b63	-0.51286906
205	0xbe897a5d	-0.26851168
206	0x3e02bd14	0.1276744
207	0xbdb56f71	-0.088591464
208	0xbdf3a9c1	-0.11897612
209	0xbd9505c4	-0.0727649
210	0x3f0e5c1a	0.55609286
211	0x3f0b29cf	0.5436067
212	0xbee14372	-0.4399677
213	0xbf4b725f	-0.7947139
214	0xbf839f07	-1.0282906
215	0xbf9dc270	-1.2324963
216	0xbf0be7e6	-0.54650724
217	0xbf027097	-0.5095305
218	0xbe15141e	-0.14558455
219	0x3e84bc11	0.25924733
220	0x3ecab5d9	0.39591864
221	0x3c4d33a4	0.012524519
222	0x3db091f0	0.08621585
223	0x3ca10095	0.019653598
224	0x3b921dab	0.004459103
225	0x3d8a924b	0.067661844
226	0x3da23e7e	0.07922076
227	0x3d95c2ae	0.07312523
228	0x3e3be7ec	0.1835019
229	0x3e1b40cf	0.15161441
230	0xbd51d6ef	-0.051230367
231	0x3e372eaa	0.17888895
232	0xbe8f76e2	-0.28020388
233	0xbe945678	-0.2897222
234	0xbe9ee39a	-0.3103302
235	0xbf0be5b1	-0.54647356
236	0xbe94fd5f	-0.29099557
237	0xbbc5b910	-0.006034024
238	0x3ec24351	0.37941983
239	0x3e6759ef	0.225929
240	0xbf913dc4	-1.1346974
241	0xbfb62152	-1.4228919
242	0xbf7afda5	-0.9804328
243	0xbf903ad8	-1.1267958
244	0xbe3ccb62	-0.1843696
245	0x3d8095a4	0.06278542
246	0x3dd91d12	0.10601248
247	0x3dd1cd56	0.10244243
248	0x3e624c95	0.22099526
249	0x3e9976d8	0.29973483
250	0xbce2529e	-0.027627286
251	0xbc187bb7	-0.00930684
252	0x3d0ac5a9	0.03387991
253	0x3ceb363c	0.028712384
254	0x3d3ee411	0.04660422
255	0x3d0016f8	0.031271905

layers.0.bias f4 [128]
0	0xbd27583d	-0.040855635
1	0xbd79228a	-0.060823955
2	0xbd3bd8d5	-0.045861084
3	0xbd981569	-0.07425959
4	0xbdc33905	-0.0953236
5	0xbd6485b8	-0.055791587
6	0xbd0cf10a	-0.03440956
7	0xbc90e783	-0.017688518
8	0xbe0f1fb7	-0.13976942
9	0xbdef4c01	-0.116844185
10	0xbd3ccc5d	-0.046093334
11	0xbcdc3014	-0.026878394
12	0xbdb4d120	-0.0882895
13	0xbe2ef626	-0.17086086
14	0xbdab2c4d	-0.08358059
15	0x3cac4d78	0.021033034
16	0xbd718e53	-0.05897362
17	0xbd0b10c8	-0.03395155
18	0xbc8a466c	-0.016879283
19	0xbd0b5c14	-0.03402336
20	0xbdae14cd	-0.08500061
21	0xbcf09ab2	-0.02937064
22	0xbbec4c72	-0.0072112614
23	0x3ca28186	0.019837152
24	0xbd9eeca6	-0.07759981
25	0xbe005556	-0.12532553
26	0xbdb55fe2	-0.08856179
27	0x3bae76b3	0.0053242086
28	0xbdedb2aa	-0.11606343
29	0xbe2313a6	-0.15925464
30	0x3b658608	0.0035022516
31	0xbe02f279	-0.12787808
32	0xbde81d62	-0.11333729
33	0xbcc97599	-0.024592208
34	0xbdb50cf0	-0.08840358
35	0xbd9b9c89	-0.07598216
36	0xbdbcd66e	-0.09220587
37	0x3abed6c3	0.0014559854
38	0xba8a1031	-0.001053339
39	0xbd149738	-0.036277026
40	0xbdb1f164	-0.0868862
41	0xbc6a1c1a	-0.0142889265
42	0xbd604da4	-0.054761544
43	0xbca186ae	-0.01971754
44	0xbd5bc164	-0.05365123
45	0xba83cf3b	-0.0010056266
46	0xbdac6843	-0.08418324
47	0xbd0ef6f2	-0.034903474
48	0xbcff6008	-0.031173721
49	0xbd1cd953	-0.038293194
50	0xbc65424b	-0.013992856
51	0x3ca267aa	0.019824822
52	0xbd8435f0	-0.064556
53	0xbd79cc86	-0.060986064
54	0x3b1cd81f	0.002393253
55	0xbde5db9f	-0.1122353
56	0xbd9a9166	-0.07547264
57	0xbd56e87f	-0.05246782
58	0xbdc6b7e1	-0.09703041
59	0xbd9c4241	-0.076298244
60	0xbc0e7299	-0.008694314
61	0xbd2ae37c	-0.041720852
62	0xbbbac959	-0.005700272
63	0xbd098f6c	-0.033584043
64	0xbda2cb17	-0.079488926
65	0xbda42f47	-0.0801683
66	0xbe1c05e9	-0.1523663
67	0x3b23953a	0.0024960772
68	0xbd3369e6	-0.043802164
69	0x3c3e987e	0.011633037
70	0xbd58073a	-0.052741267
71	0xbde9eed7	-0.11422508
72	0x3cb09826	0.021556925
73	0xbd8016b2	-0.06254329
74	0xbdafb346	-0.085791156
75	0xbc63c4d5	-0.013901909
76	0xbd865a63	-0.06560209
77	0xbc8be677	-0.017077668
78	0xbdcbe99e	-0.09956668
79	0xbcd3601c	-0.025802664
80	0x3d240b8d	0.04005008
81	0xbd924c7f	-0.07143497
82	0xbdd5290d	-0.104082204
83	0xbdfe5d90	-0.124201894
84	0xbd3796f3	-0.04482169
85	0x3cda479a	0.02664547
86	0xbdc35e1d	-0.09539435
87	0xbe132d59	-0.14372768
88	0xbd185dfd	-0.03719901
89	0xbd872b8a	-0.06600101
90	0xbe239306	-0.15974054
91	0xbd8ea99b	-0.069659434
92	0xbdd7e298	-0.10541266
93	0xba018cae	-0.00049419224
94	0xbc46061e	-0.012086419
95	0xbe32c04e	-0.17456171
96	0xbd47ae45	-0.04875018
97	0x3bab5a60	0.0052292794
98	0xbe375055	-0.17901738
99	0xbdc9a6c9	-0.09846265
100	0xbdb3f68c	-0.087872595
101	0xbbe02b20	-0.0068410784
102	0xbdf74849	-0.12074334
103	0xbda05329	-0.078283615
104	0xbe0ff946	-0.14059934
105	0xbe42413b	-0.18970196
106	0xbd978155	-0.07397715
107	0xbd9c27b2	-0.07624759
108	0x3d12d6e2	0.03584946
109	0xbe08bef8	-0.13354099
110	0xbcf3c17d	-0.029755348
111	0xbdc8774b	-0.09788378
112	0xbc5ba505	-0.013406043
113	0x3ca2c2c5	0.019868264
114	0xbd60883f	-0.054817434
115	0xbd6d2e17	-0.057905283
116	0xbc90c743	-0.01767314
117	0xbd810f11	-0.06301702
118	0xbdd02909	-0.10164077
119	0x3d2dbd67	0.042416956
120	0xbd1908bd	-0.03736185
121	0xbd9c9d5e	-0.07647203
122	0xbd30c60c	-0.043157622
123	0xbe0c44db	-0.13698141
124	0xbd832541	-0.0640359
125	0xbe01fb61	-0.1269355
126	0xbd2fb396	-0.042895876
127	0xbd96f16c	-0.07370266

layers.2.weight f4 [64, 128]
0	0xbe0df30a	-0.13862243
1	0xbe0a2a2c	-0.1349265
2	0x3e03aeac	0.12859601
3	0xbe81c76e	-0.25347465
4	0xbe9f49b4	-0.3111092
5	0x3ea5237d	0.32253638
6	0x3e4b4bc8	0.19853127
7	0x3cbb2dfd	0.022849077
8	0x3eb12e24	0.34605515
9	0xbd473306	-0.048632644
10	0x3d369bef	0.044582304
11	0x3e3ee192	0.18640736
12	0xbdaf2a5b	-0.085530005
13	0xbe5ebca9	-0.21751656
14	0x3dc4bf69	0.09606821
15	0x3ea75352	0.32680756
16	0x3de1e22c	0.11029467
17	0xbe43a986	-0.19107637
18	0x3d8eea60	0.06978297
19	0x3dcbe59d	0.09955905
20	0xbdd049e0	-0.101703405
21	0xbf2419fc	-0.6410215
22	0x3d31c729	0.043402825
23	0x3ec12dc2	0.37730223
24	0xbdc64477	-0.096810274
25	0x3e4b3406	0.19844064
26	0xbe25d2b6	-0.16193661
27	0x3b5306ab	0.003220002
28	0x3e1c5a59	0.1526884
29	0xbee05b7e	-0.43819803
30	0xbdcd27cf	-0.100173585
31	0x3ea85b93	0.32882366
32	0x3dc0cac0	0.094136715
33	0x3cdd1d30	0.026991457
34	0x39bf0075	0.000364307
35	0xbdc98431	-0.09839667
36	0x3b455a88	0.0030113775
37	0xbd0168d9	-0.03159413
38	0x3dc0b0ef	0.094087474
39	0x3e776a4b	0.24161641
40	0x3ea2a9f8	0.317703
41	0x3d3c7cea	0.046017565
42	0xbe85a3a7	-0.2610142
43	0xbea62678	-0.32451224
44	0x3dc64d83	0.09682753
45	0xbd6fa01a	-0.058502294
46	0xbe0b3bbe	-0.13597009
47	0x3d6ec5a5	0.058293957
48	0x3dfc8c8d	0.123314954
49	0x3b075e60	0.0020655617
50	0xbe5125b3	-0.20424537
51	0x3dc47311	0.0959226
52	0xbeb4f943	-0.35346422
53	0xbe046852	-0.1293042
54	0x3c8f3eee	0.017486062
55	0x3e722249	0.23645891
56	0xbf04c7a4	-0.5186713
57	0x3d981099	0.07425041
58	0x3d969561	0.073527105
59	0x3ebe7f30	0.3720641
60	0xbbf07f0e	-0.007339365
61	0x3e1bdb3d	0.15220352
62	0x3d0e0d92	0.03468091
63	0x3dcea0ab	0.10089239
64	0xbedc0223	-0.4297038
65	0x3ce5a2c7	0.02803172
66	0x3d7d0f87	0.061782386
67	0xbea38530	-0.31937551
68	0xbe6797b3	-0.22616462
69	0xbef6a460	-0.48172283
70	0xbea72cff	-0.32651517
71	0x3c88296f	0.01662132
72	0x3d1ee563	0.03879298
73	0x3e8828bc	0.26593578
74	0x3e4d0739	0.20022286
75	0xbe48a75a	-0.1959509
76	0x3ca2485b	0.019809892
77	0xbc2cf1af	-0.010555669
78	0xbd7eec0e	-0.062236838
79	0x3ec244a3	0.3794299
80	0x3eb761cf	0.3581681
81	0x3df992fa	0.12186237
82	0xbf1aa894	-0.6041348
83	0xbf032955	-0.5123494
84	0xbe4e68d3	-0.20157175
85	0xbe894030	-0.26806784
86	0xbe16154c	-0.14656562
87	0x3d2b2c90	0.041790545
88	0xbf611149	-0.87917
89	0xbeceea3f	-0.4041309
90	0xbe97c596	-0.29642934
91	0xbf2d4ce6	-0.6769546
92	0x3bfe07cb	0.007752394
93	0xbd848238	-0.0647015
94	0x3c823149	0.015892642
95	0x3e76cbe7	0.2410122
96	0x3da4a4f1	0.080392726
97	0x3bec00d1	0.0072022458
98	0xbe089847	-0.13339339
99	0xbe4db488	-0.20088398
100	0xbf20bb53	-0.62785834
101	0x3c9ce5b8	0.019152507
102	0xbc873ea0	-0.016509354
103	0x3d862933	0.06550827
104	0x3e0b328e	0.13593504
105	0xbf0ca0d4	-0.54932904
106	0xbe780e20	-0.24224138
107	0xbeea814a	-0.45801765
108	0xbeb7cde5	-0.35899273
109	0x3b30d3f6	0.0026981807
110	0xbd38cd42	-0.045117624
111	0x3e31a8aa	0.17349496
112	0xbe7cb43b	-0.24678127
113	0xbdcb6fcd	-0.09933434
114	0x3e28ca7c	0.16483492
115	0xbcf8507c	-0.030311815
116	0x3dbf76a0	0.09348798
117	0x3e9647b2	0.29351574
118	0xbd6b45d8	-0.057439655
119	0xbd9a5d99	-0.075373836
120	0xbcb0dd07	-0.021589769
121	0xbda6e4de	-0.08149122
122	0x3e0f5e5b	0.14000838
123	0xbcd042df	-0.025422512
124	0xbead86a1	-0.33891776
125	0x3e876bf2	0.26449543
126	0x3d49dfea	0.049285807
127	0xbe618513	-0.2202342
128	0x3e2a2d0a	0.16618744
129	0x3ed05bb0	0.40694952
130	0x3e0c0616	0.13674197
131	0xbf254437	-0.6455721
132	0xbf21d2e6	-0.6321243
133	0xbeae45db	-0.3403767
134	0x3ea273fa	0.31729108
135	0xbd5cc227	-0.053896096
136	0xbeecc972	-0.4624744
137	0x3d75f8ad	0.06005161
138	0x3e36d303	0.17853932
139	0xbf0df12b	-0.5544612
140	0x3c6e60c8	0.014549442
141	0xbe95c21e	-0.29249662
142	0x3e1eb71d	0.1549954
143	0x3e32794e	0.17429087
144	0x3e80e7e2	0.25176913
145	0x3e05ab0a	0.13053527
146	0x3f02f5ed	0.511565
147	0xbcbd0390	-0.023072988
148	0x3e822ed0	0.2542634
149	0xbef64dc3	-0.48106202
150	0x3e8be7bc	0.27325237
151	0x3eb43579	0.35197046
152	0xbbda2bf9	-0.006658074
153	0x3e96dc3c	0.294649
154	0x3cfc0b20	0.030767024
155	0x3e6a9767	0.22909318
156	0x3eb93af0	0.36177778
157	0xbdad9307	-0.08475309
158	0x3ea743cb	0.3266891
159	0xbe30a95a	-0.17252102
160	0xbe051e27	-0.12999783
161	0xbbfc86c5	-0.0077064955
162	0x3d7f7386	0.06236603
163	0x3e2b2605	0.16713722
164	0x3e733911	0.23752238
165	0xbca7c22b	-0.020478329
166	0xbd984b6b	-0.0743626
167	0x3e84f9b0	0.25971746
168	0x3de00789	0.10938937
169	0xbd46f46b	-0.04857294
170	0xbef3d550	-0.47623682
171	0x3eb23fed	0.34814397
172	0x3e2c3d7d	0.16820331
173	0xbd8b9ac4	-0.068166286
174	0x3e4fd2e2	0.20295289
175	0x3ef87ca4	0.48532593
176	0xbd1c2744	-0.038123384
177	0x3d781923	0.060570847
178	0xbeac17b1	-0.33611825
179	0x3e9bacbf	0.30405232
180	0xbe88d0b3	-0.26721725
181	0x3dfb1631	0.12260092
182	0xbe20f1ed	-0.15717287
183	0x3e378aae	0.17923996
184	0x3e0f73c7	0.1400901
185	0x3e639c83	0.22227673
186	0x3d73d004	0.05952455
187	0xbd790dba	-0.060804106
188	0xbeddb53a	-0.43302327
189	0xbe48063b	-0.19533627
190	0x3da6c5a1	0.081431635
191	0xbdac281e	-0.08406089
192	0xbeda5ef3	-0.42650566
193	0xbdeb3424	-0.114845544
194	0x3d03a9be	0.0321443
195	0xbf265735	-0.6497682
196	0x3e193197	0.14960323
197	0x3dcb8575	0.09937564
198	0xbf349ac1	-0.70548636
199	0x3ea8f9f7	0.33003208
200	0x3d90325d	0.07040856
201	0x3e3101c8	0.17285836
202	0xbdd6b423	-0.10483577
203	0x3e920a64	0.28523552
204	0xbe3730ca	-0.17889705
205	0xbbefc06a	-0.0073166387
206	0x3e550dfd	0.20806117
207	0x3e0e0f95	0.13873132
208	0x3eae8155	0.34083048
209	0x3e09dec3	0.13463883
210	0xbd333e60	-0.043760657
211	0x3e2f76e7	0.17135201
212	0xbf548a2e	-0.83023345
213	0x3e9f831b	0.31154713
214	0x3ec1fffd	0.37890616
215	0x3e416e41	0.18889715
216	0xbe56b97f	-0.20969199
217	0xbe9fcf0a	-0.31212646
218	0x3ed156f3	0.4088665
219	0x3d574eb1	0.05256528
220	0x3e3f70f1	0.18695427
221	0x3ef8bbc5	0.48580757
222	0xbf0fad15	-0.5612348
223	0xbf5eeca4	-0.87079835
224	0xbe75a297	-0.23987804
225	0xbdecf59a	-0.11570282
226	0xbd019141	-0.031632666
227	0x3d9509a6	0.07277231
228	0xbdb11c6b	-0.086479984
229	0xbf059714	-0.5218365
230	0xbe07e769	-0.1327187
231	0xbd824e42	-0.06362583
232	0x3eba8396	0.36428517
233	0xbdfc4d46	-0.12319426
234	0xbe625cfc	-0.22105783
235	0xbe704e83	-0.2346745
236	0x3e1334da	0.1437563
237	0x3eb7bbd6	0.35885495
238	0x3c58c7a0	0.013231188
239	0xbde24dd2	-0.11049999
240	0xbe76eb58	-0.24113214
241	0x3f0a6541	0.5406075
242	0x3e9b0d5e	0.30283636
243	0xbe500d9a	-0.20317689
244	0xbe83edea	-0.25767452
245	0x3ec48bc7	0.38387892
246	0xbe2f91eb	-0.17145507
247	0x3e8aaec3	0.27086458
248	0xbc0cadc7	-0.008586354
249	0xbb49b097	-0.0030775422
250	0x3e864480	0.26224136
251	0x3e401fbf	0.1876211
252	0xbf34e9f0	-0.7066946
253	0xbf405de8	-0.7514329
254	0xbeb41d4c	-0.35178602
255	0xbd83c597	-0.06434172

layers.2.bias f4 [64]
0	0xbebbad28	-0.36655545
1	0xbe07d219	-0.1326374
2	0x3e8b6154	0.27222693
3	0x3e246d3e	0.16057298
4	0xbdc41f97	-0.09576338
5	0xbef50aa1	-0.47859672
6	0xbf4a3385	-0.7898486
7	0xbc401b73	-0.011725294
8	0x3eab1565	0.3341476
9	0xbe1e6510	-0.1546824
10	0xbcab2b14	-0.020894565
11	0xbee312a4	-0.4435016
12	0xbe4825d0	-0.19545674
13	0xbec7f40a	-0.39053375
14	0xbe3f70c3	-0.18695359
15	0xbeb2c093	-0.34912547
16	0xbeaf147d	-0.3419532
17	0x3d69fc8f	0.057125624
18	0xbe95cfa7	-0.2925999
19	0x3f21b7a6	0.6317085
20	0xbf3a75a4	-0.72835755
21	0xbe2e1582	-0.17000392
22	0xbef29c1a	-0.4738472
23	0xbcfb152b	-0.030649742
24	0x3e14e3cb	0.14540021
25	0xbebf5a9b	-0.37373814
26	0xbd53b49f	-0.051685926
27	0xbcfa385f	-0.030544458
28	0x3e07f426	0.13276729
29	0x3f2e1edd	0.68015844
30	0x3edc03fd	0.42971793
31	0xbe6a2028	-0.22863829
32	0xbe6f15f3	-0.23348217
33	0x3f5bd0b2	0.8586532
34	0xbee3cbed	-0.4449152
35	0xbea5a068	-0.32348943
36	0xbf105ea1	-0.5639439
37	0xbe0e25f4	-0.13881665
38	0xbf2c365f	-0.67270464
39	0xbeacc588	-0.33744454
40	0xbd861e39	-0.06548733
41	0x3d0a0ccc	0.03370361
42	0xbedf0fda	-0.4356678
43	0xbf2efb8c	-0.6835258
44	0xbd0d86f9	-0.034552548
45	0xbe895ccf	-0.2682862
46	0xbe79d26a	-0.24396673
47	0xbf0ece1d	-0.55783254
48	0x3f1c4738	0.6104617
49	0x3c5eb501	0.013592959
50	0x3f046d57	0.5172934
51	0xbea0aaf7	-0.31380436
52	0x3d8a74ed	0.06760583
53	0xbe451531	-0.19246365
54	0x3bc87a0d	0.006118065
55	0xbe49d6c7	-0.19710837
56	0xbeea8a91	-0.45808843
57	0xbf03e315	-0.51518375
58	0x3d4c9ff8	0.049957246
59	0x3d1c34cb	0.038136285
60	0xbea65b5a	-0.3249157
61	0xbd33167b	-0.04372261
62	0xbf2dca5f	-0.6788692
63	0xbea7da02	-0.32783514

layers.4.weight f4 [10, 64]
0	0x3e3b9339	0.1831788
1	0x3e60687b	0.21914856
2	0xbeca92f9	-0.39565256
3	0x3d4568e4	0.048195735
4	0x3da483f3	0.0803298
5	0x3db7e80c	0.08979806
6	0xbec5fa4c	-0.38667524
7	0x3d7515a3	0.059835088
8	0xbcc9aea6	-0.024619412
9	0xbe4ebf1b	-0.20190088
10	0x3e505eab	0.20348613
11	0xbd219a11	-0.03945357
12	0xbf212615	-0.62948734
13	0xbe688421	-0.22706653
14	0xbe817937	-0.25287792
15	0xbe855170	-0.26038694
16	0xbe9e005d	-0.30859652
17	0x3e2a0fa9	0.16607536
18	0xbe128d30	-0.14311671
19	0xbe007075	-0.12542899
20	0x3b51a0c4	0.0031986693
21	0xbee907b0	-0.45513678
22	0xbe4d48cc	-0.20047301
23	0xbf098bb5	-0.537288
24	0xbce5e805	-0.028064737
25	0xbeb000a6	-0.34375495
26	0x3e2ffa93	0.1718543
27	0x3d878bf5	0.066184916
28	0x3e6712d5	0.22565778
29	0xbe39bed1	-0.18139197
30	0xbdd301e8	-0.10303098
31	0x3e6f95b0	0.23396945
32	0xbe7b7929	-0.24557938
33	0x3e0b6150	0.1361134
34	0xbcdc5928	-0.026897982
35	0xbe817fe4	-0.25292885
36	0xbe1be1fc	-0.15222925
37	0xbd424d2d	-0.04743688
38	0xbd6a7d41	-0.057248358
39	0x3e4c3b6a	0.1994454
40	0xbe21c6b2	-0.15798452
41	0xbe95b2cb	-0.2923797
42	0x3d815b33	0.06316223
43	0xbe99e908	-0.300606
44	0xbe923f06	-0.28563708
45	0x3e3ff005	0.18743904
46	0xbee0636b	-0.4382585
47	0x3e2cd4c4	0.16878039
48	0xbd49a306	-0.049227737
49	0xbdf122e0	-0.1177423
50	0xbe7bb33a	-0.24580088
51	0x3e40fefe	0.18847272
52	0xbeaa93de	-0.3331594
53	0x3e075399	0.13215484
54	0xbe60e0ba	-0.21960726
55	0x3e4f4bec	0.20243806
56	0xbebf230b	-0.37331423
57	0x3db2f918	0.08738917
58	0xbec28920	-0.37995243
59	0x3c3176c7	0.010831541
60	0xbea782ce	-0.32716984
61	0xbe939fac	-0.28832757
62	0xbef15773	-0.4713703
63	0xbdfc02b0	-0.123052
64	0x3d72a749	0.059241567
65	0xbe3f9749	-0.18710054
66	0x3dd25275	0.10269634
67	0xbef83fa3	-0.4848605
68	0xbf148731	-0.58018786
69	0xbe5e9c9d	-0.2173943
70	0x3dca94de	0.098916754
71	0x3c1044e8	0.008805491
72	0xbe94bb4c	-0.29049146
73	0xbe3cc896	-0.18435892
74	0xbdf9f22e	-0.12204395
75	0x3dc4ba7b	0.09605881
76	0x3e50fe50	0.20409513
77	0x3cc2a1f1	0.02375886
78	0x3de4e8f9	0.111772485
79	0xbce40956	-0.027836483
80	0xbf37c346	-0.7178234
81	0xbe3adf55	-0.18249257
82	0x3e9857c1	0.2975445
83	0xbeae37b5	-0.34026876
84	0x3e523992	0.20529774
85	0xbbcb17fc	-0.0061979275
86	0x3e15d10e	0.1463053
87	0x3d6dec7c	0.058086857
88	0xbee3ee41	-0.4451771
89	0xbb21bc74	-0.0024678977
90	0xbf00e831	-0.50354296
91	0xbed434d3	-0.41446552
92	0xbee793f2	-0.4523006
93	0xbef749f1	-0.482986
94	0x3dfecacc	0.12441024
95	0xbeeeb191	-0.46619847
96	0x3d978ad7	0.073995285
97	0x3dbc305a	0.0918891
98	0xbee04a7a	-0.4380682
99	0xbf11f90f	-0.5702066
100	0x3d364341	0.044497732
101	0x3ce43dd7	0.027861519
102	0x3e912486	0.28348178
103	0x3d940266	0.0722702
104	0xbe3f2ffd	-0.1867065
105	0xbe9303c2	-0.28713804
106	0x3dc0c108	0.09411818
107	0x3d4a9cac	0.04946582
108	0x3e0a2503	0.13490681
109	0xbec69adc	-0.38790023
110	0xbe5cd556	-0.21565756
111	0x38e86019	0.00011080522
112	0x3b101db3	0.0021990358
113	0xbdd086e1	-0.10181976
114	0xbc9c73f6	-0.019098263
115	0x3e60f499	0.21968307
116	0xbd1d0362	-0.038333304
117	0xbefea359	-0.49734
118	0xbe383b9e	-0.17991492
119	0xbf0854b3	-0.5325424
120	0x3cb45636	0.022013765
121	0xbea9fd43	-0.33201036
122	0xbedf2506	-0.43582934
123	0xbebb1312	-0.36537987
124	0x3e2df002	0.16986087
125	0x3e35bbe6	0.17747459
126	0x3dbee777	0.09321492
127	0xbdd4e9cc	-0.10396156
128	0xbc90d19d	-0.017678076
129	0x3e24c6e7	0.160915
130	0xbd8e5d71	-0.06951416
131	0x3e059234	0.13044053
132	0xbecf53d9	-0.40493658
133	0xbe937a0f	-0.2880406
134	0xbcaeb64b	-0.021327158
135	0x3e18de82	0.1492863
136	0xbd6d0195	-0.057862837
137	0xbf18e207	-0.5971989
138	0xbe657e87	-0.22411548
139	0x3e8a7c59	0.27047995
140	0xbe484774	-0.19558507
141	0xbc43bf26	-0.011947429
142	0xbe7d926c	-0.24762887
143	0xbe9d6765	-0.30742946
144	0xbe844e5a	-0.25841027
145	0xbea7a886	-0.3274576
146	0xbe926a19	-0.2859657
147	0xbeb9ccee	-0.3628916
148	0x3cf4b8c7	0.029873265
149	0x3d9d4b0d	0.076803304
150	0x3d16b58f	0.03679424
151	0x3ddcccf8	0.10781282
152	0x3eb93f4a	0.36181098
153	0xbdfced37	-0.12349933
154	0x3de3d050	0.11123717
155	0x3e2f5c9e	0.17125174
156	0x3b1afc3a	0.0023648874
157	0xbc739ed3	-0.01486941
158	0xbebcd5f9	-0.36881998
159	0xbdeabcf2	-0.1146182
160	0x3de50360	0.11182284
161	0xbe0b0fff	-0.13580321
162	0x3dc448c7	0.09584194
163	0xbf137dab	-0.5761363
164	0xbdfe30c0	-0.12411642
165	0xbd0afb9b	-0.033931356
166	0x3d3f824f	0.04675513
167	0xbe13fd68	-0.14452136
168	0xbcefbb8f	-0.02926424
169	0x3e381c92	0.17979649
170	0xbbef79bf	-0.0073082144
171	0xbeb8e989	-0.36115673
172	0xbef01b6e	-0.46895927
173	0xbf00c661	-0.503027
174	0xbe7cd266	-0.24689636
175	0x3ddc1b7e	0.10747431
176	0xbec06cc4	-0.37582982
177	0xbdb50bf7	-0.08840173
178	0xbee735c5	-0.4515821
179	0xbecfbdca	-0.40574485
180	0xbed2e62e	-0.41191238
181	0xbda414b4	-0.08011761
182	0xbe340411	-0.17579676
183	0xbf04decd	-0.51902467
184	0xbeefe5c1	-0.46854976
185	0x3dcf74eb	0.10129722
186	0xbdda6908	-0.10664564
187	0x3e0937cf	0.13400196
188	0xbed7f0c9	-0.42175892
189	0x3e640810	0.222687
190	0x3e256606	0.161522
191	0x3c161ca7	0.009162105
192	0x3dab93b6	0.08377783
193	0xbe6ffaff	-0.23435591
194	0xbe9c3249	-0.30507115
195	0x3c62f68e	0.0138527285
196	0x3dbba04c	0.091614336
197	0xbe40bb3a	-0.18821421
198	0x3e442de4	0.19158131
199	0x3dd819d3	0.105518006
200	0x3d8219ef	0.06352603
201	0xbeb0fd7b	-0.3456839
202	0x3d0137d8	0.031547397
203	0xbe9e993d	-0.30976287
204	0x3dcb75a7	0.0993455
205	0x3e10a710	0.1412623
206	0xbe8b4e5f	-0.2720823
207	0xbcbf1fd0	-0.0233306
208	0xbe454e41	-0.19268133
209	0xbe7c520a	-0.2464067
210	0xbd75a52f	-0.059971984
211	0x3cd0fe2a	0.02551182
212	0xbed086ea	-0.4072793
213	0x3e4daf99	0.20086516
214	0xbef89cc7	-0.48557112
215	0xbcc6cc8b	-0.024267456
216	0xbe1c0b80	-0.15238762
217	0xbf0efdcb	-0.5585601
218	0x3d20cf21	0.039260034
219	0xbb93ba73	-0.0045083105
220	0xbde97922	-0.114000574
221	0x3e137716	0.14400896
222	0xbd18fae7	-0.037348654
223	0xbe292664	-0.16518551
224	0x3e16cbf7	0.14726244
225	0xbe726ca2	-0.23674253
226	0x3e51cbea	0.20487943
227	0x3dca2779	0.0987081
228	0xbdea2cb2	-0.11434306
229	0x3d991501	0.07474709
230	0x3e1777b2	0.14791754
231	0x3d2b15ad	0.04176872
232	0xbdff4d62	-0.124659315
233	0xbdd728d0	-0.10505831
234	0x3d5ab0ca	0.053391255
235	0xbe708f7d	-0.23492236
236	0xbeac06ef	-0.3359904
237	0xbed1cf95	-0.40978685
238	0x3e09fba7	0.13474904
239	0xbe5895fe	-0.21150967
240	0xbeabce9a	-0.33556062
241	0xbdd2ca99	-0.10292549
242	0xbe9ef403	-0.3104554
243	0xbd1ad91c	-0.037804708
244	0xbeb50190	-0.35352755
245	0xbcc18841	-0.023624541
246	0x3e7d0981	0.24710657
247	0xbe7423ee	-0.23841831
248	0x3d97689a	0.07392998
249	0xbe8af2a5	-0.27138248
250	0x3d7d929b	0.061907392
251	0xbe83f08f	-0.2576947
252	0xbeab85b4	-0.33500445
253	0xbe89dd2c	-0.26926553
254	0x3de875b7	0.11350577
255	0x3dad0dd8	0.08449906

layers.4.bias f4 [10]
0	0xbe1ecc79	-0.15507688
1	0xbf1165b2	-0.567958
2	0xbecbed0a	-0.39829284
3	0xbdea5a74	-0.11443034
4	0x3e116639	0.14199151
5	0xbe8823b1	-0.2658973
6	0xbdef80cb	-0.11694487
7	0xbef04506	-0.4692766
8	0x3f8edd09	1.1161205
9	0x3e300259	0.17188396
